…
2025-05-08 20:19:31.244022: I tensorflow/core/common_runtime/gpu/gpu_device.cc:1616] Created device /job:localhost/replica:0/task:0/device:GPU:0 with 5409 MB memory:  -> device: 0, name: NVIDIA GeForce RTX 4070 Laptop GPU, pci bus id: 0000:01:00.0, compute capability: 8.9
Model: "resnet50"
__________________________________________________________________________________________________
 Layer (type)                   Output Shape         Param #     Connected to
==================================================================================================
 input_1 (InputLayer)           [(None, 64, 64, 3)]  0           []

 conv1_pad (ZeroPadding2D)      (None, 70, 70, 3)    0           ['input_1[0][0]']

 conv1_conv (Conv2D)            (None, 32, 32, 64)   9472        ['conv1_pad[0][0]']

 conv1_bn (BatchNormalization)  (None, 32, 32, 64)   256         ['conv1_conv[0][0]']

 conv1_relu (Activation)        (None, 32, 32, 64)   0           ['conv1_bn[0][0]']

 pool1_pad (ZeroPadding2D)      (None, 34, 34, 64)   0           ['conv1_relu[0][0]']

 pool1_pool (MaxPooling2D)      (None, 16, 16, 64)   0           ['pool1_pad[0][0]']

 conv2_block1_1_conv (Conv2D)   (None, 16, 16, 64)   4160        ['pool1_pool[0][0]']

 conv2_block1_1_bn (BatchNormal  (None, 16, 16, 64)  256         ['conv2_block1_1_conv[0][0]']
 ization)

 conv2_block1_1_relu (Activatio  (None, 16, 16, 64)  0           ['conv2_block1_1_bn[0][0]']
 n)

 conv2_block1_2_conv (Conv2D)   (None, 16, 16, 64)   36928       ['conv2_block1_1_relu[0][0]']

 conv2_block1_2_bn (BatchNormal  (None, 16, 16, 64)  256         ['conv2_block1_2_conv[0][0]']
 ization)

 conv2_block1_2_relu (Activatio  (None, 16, 16, 64)  0           ['conv2_block1_2_bn[0][0]']
 n)

 conv2_block1_0_conv (Conv2D)   (None, 16, 16, 256)  16640       ['pool1_pool[0][0]']

 conv2_block1_3_conv (Conv2D)   (None, 16, 16, 256)  16640       ['conv2_block1_2_relu[0][0]']

 conv2_block1_0_bn (BatchNormal  (None, 16, 16, 256)  1024       ['conv2_block1_0_conv[0][0]']
 ization)

 conv2_block1_3_bn (BatchNormal  (None, 16, 16, 256)  1024       ['conv2_block1_3_conv[0][0]']
 ization)

 conv2_block1_add (Add)         (None, 16, 16, 256)  0           ['conv2_block1_0_bn[0][0]',
                                                                  'conv2_block1_3_bn[0][0]']

 conv2_block1_out (Activation)  (None, 16, 16, 256)  0           ['conv2_block1_add[0][0]']

 conv2_block2_1_conv (Conv2D)   (None, 16, 16, 64)   16448       ['conv2_block1_out[0][0]']

 conv2_block2_1_bn (BatchNormal  (None, 16, 16, 64)  256         ['conv2_block2_1_conv[0][0]']
 ization)

 conv2_block2_1_relu (Activatio  (None, 16, 16, 64)  0           ['conv2_block2_1_bn[0][0]']
 n)

 conv2_block2_2_conv (Conv2D)   (None, 16, 16, 64)   36928       ['conv2_block2_1_relu[0][0]']

 conv2_block2_2_bn (BatchNormal  (None, 16, 16, 64)  256         ['conv2_block2_2_conv[0][0]']
 ization)

 conv2_block2_2_relu (Activatio  (None, 16, 16, 64)  0           ['conv2_block2_2_bn[0][0]']
 n)

 conv2_block2_3_conv (Conv2D)   (None, 16, 16, 256)  16640       ['conv2_block2_2_relu[0][0]']

 conv2_block2_3_bn (BatchNormal  (None, 16, 16, 256)  1024       ['conv2_block2_3_conv[0][0]']
 ization)

 conv2_block2_add (Add)         (None, 16, 16, 256)  0           ['conv2_block1_out[0][0]',
                                                                  'conv2_block2_3_bn[0][0]']

 conv2_block2_out (Activation)  (None, 16, 16, 256)  0           ['conv2_block2_add[0][0]']

 conv2_block3_1_conv (Conv2D)   (None, 16, 16, 64)   16448       ['conv2_block2_out[0][0]']

 conv2_block3_1_bn (BatchNormal  (None, 16, 16, 64)  256         ['conv2_block3_1_conv[0][0]']
 ization)

 conv2_block3_1_relu (Activatio  (None, 16, 16, 64)  0           ['conv2_block3_1_bn[0][0]']
 n)

 conv2_block3_2_conv (Conv2D)   (None, 16, 16, 64)   36928       ['conv2_block3_1_relu[0][0]']

 conv2_block3_2_bn (BatchNormal  (None, 16, 16, 64)  256         ['conv2_block3_2_conv[0][0]']
 ization)

 conv2_block3_2_relu (Activatio  (None, 16, 16, 64)  0           ['conv2_block3_2_bn[0][0]']
 n)

 conv2_block3_3_conv (Conv2D)   (None, 16, 16, 256)  16640       ['conv2_block3_2_relu[0][0]']

 conv2_block3_3_bn (BatchNormal  (None, 16, 16, 256)  1024       ['conv2_block3_3_conv[0][0]']
 ization)

 conv2_block3_add (Add)         (None, 16, 16, 256)  0           ['conv2_block2_out[0][0]',
                                                                  'conv2_block3_3_bn[0][0]']

 conv2_block3_out (Activation)  (None, 16, 16, 256)  0           ['conv2_block3_add[0][0]']

 conv3_block1_1_conv (Conv2D)   (None, 8, 8, 128)    32896       ['conv2_block3_out[0][0]']

 conv3_block1_1_bn (BatchNormal  (None, 8, 8, 128)   512         ['conv3_block1_1_conv[0][0]']
 ization)

 conv3_block1_1_relu (Activatio  (None, 8, 8, 128)   0           ['conv3_block1_1_bn[0][0]']
 n)

 conv3_block1_2_conv (Conv2D)   (None, 8, 8, 128)    147584      ['conv3_block1_1_relu[0][0]']

 conv3_block1_2_bn (BatchNormal  (None, 8, 8, 128)   512         ['conv3_block1_2_conv[0][0]']
 ization)

 conv3_block1_2_relu (Activatio  (None, 8, 8, 128)   0           ['conv3_block1_2_bn[0][0]']
 n)

 conv3_block1_0_conv (Conv2D)   (None, 8, 8, 512)    131584      ['conv2_block3_out[0][0]']

 conv3_block1_3_conv (Conv2D)   (None, 8, 8, 512)    66048       ['conv3_block1_2_relu[0][0]']

 conv3_block1_0_bn (BatchNormal  (None, 8, 8, 512)   2048        ['conv3_block1_0_conv[0][0]']
 ization)

 conv3_block1_3_bn (BatchNormal  (None, 8, 8, 512)   2048        ['conv3_block1_3_conv[0][0]']
 ization)

 conv3_block1_add (Add)         (None, 8, 8, 512)    0           ['conv3_block1_0_bn[0][0]',
                                                                  'conv3_block1_3_bn[0][0]']

 conv3_block1_out (Activation)  (None, 8, 8, 512)    0           ['conv3_block1_add[0][0]']

 conv3_block2_1_conv (Conv2D)   (None, 8, 8, 128)    65664       ['conv3_block1_out[0][0]']

 conv3_block2_1_bn (BatchNormal  (None, 8, 8, 128)   512         ['conv3_block2_1_conv[0][0]']
 ization)

 conv3_block2_1_relu (Activatio  (None, 8, 8, 128)   0           ['conv3_block2_1_bn[0][0]']
 n)

 conv3_block2_2_conv (Conv2D)   (None, 8, 8, 128)    147584      ['conv3_block2_1_relu[0][0]']

 conv3_block2_2_bn (BatchNormal  (None, 8, 8, 128)   512         ['conv3_block2_2_conv[0][0]']
 ization)

 conv3_block2_2_relu (Activatio  (None, 8, 8, 128)   0           ['conv3_block2_2_bn[0][0]']
 n)

 conv3_block2_3_conv (Conv2D)   (None, 8, 8, 512)    66048       ['conv3_block2_2_relu[0][0]']

 conv3_block2_3_bn (BatchNormal  (None, 8, 8, 512)   2048        ['conv3_block2_3_conv[0][0]']
 ization)

 conv3_block2_add (Add)         (None, 8, 8, 512)    0           ['conv3_block1_out[0][0]',
                                                                  'conv3_block2_3_bn[0][0]']

 conv3_block2_out (Activation)  (None, 8, 8, 512)    0           ['conv3_block2_add[0][0]']

 conv3_block3_1_conv (Conv2D)   (None, 8, 8, 128)    65664       ['conv3_block2_out[0][0]']

 conv3_block3_1_bn (BatchNormal  (None, 8, 8, 128)   512         ['conv3_block3_1_conv[0][0]']
 ization)

 conv3_block3_1_relu (Activatio  (None, 8, 8, 128)   0           ['conv3_block3_1_bn[0][0]']
 n)

 conv3_block3_2_conv (Conv2D)   (None, 8, 8, 128)    147584      ['conv3_block3_1_relu[0][0]']

 conv3_block3_2_bn (BatchNormal  (None, 8, 8, 128)   512         ['conv3_block3_2_conv[0][0]']
 ization)

 conv3_block3_2_relu (Activatio  (None, 8, 8, 128)   0           ['conv3_block3_2_bn[0][0]']
 n)

 conv3_block3_3_conv (Conv2D)   (None, 8, 8, 512)    66048       ['conv3_block3_2_relu[0][0]']

 conv3_block3_3_bn (BatchNormal  (None, 8, 8, 512)   2048        ['conv3_block3_3_conv[0][0]']
 ization)

 conv3_block3_add (Add)         (None, 8, 8, 512)    0           ['conv3_block2_out[0][0]',
                                                                  'conv3_block3_3_bn[0][0]']

 conv3_block3_out (Activation)  (None, 8, 8, 512)    0           ['conv3_block3_add[0][0]']

 conv3_block4_1_conv (Conv2D)   (None, 8, 8, 128)    65664       ['conv3_block3_out[0][0]']

 conv3_block4_1_bn (BatchNormal  (None, 8, 8, 128)   512         ['conv3_block4_1_conv[0][0]']
 ization)

 conv3_block4_1_relu (Activatio  (None, 8, 8, 128)   0           ['conv3_block4_1_bn[0][0]']
 n)

 conv3_block4_2_conv (Conv2D)   (None, 8, 8, 128)    147584      ['conv3_block4_1_relu[0][0]']

 conv3_block4_2_bn (BatchNormal  (None, 8, 8, 128)   512         ['conv3_block4_2_conv[0][0]']
 ization)

 conv3_block4_2_relu (Activatio  (None, 8, 8, 128)   0           ['conv3_block4_2_bn[0][0]']
 n)

 conv3_block4_3_conv (Conv2D)   (None, 8, 8, 512)    66048       ['conv3_block4_2_relu[0][0]']

 conv3_block4_3_bn (BatchNormal  (None, 8, 8, 512)   2048        ['conv3_block4_3_conv[0][0]']
 ization)

 conv3_block4_add (Add)         (None, 8, 8, 512)    0           ['conv3_block3_out[0][0]',
                                                                  'conv3_block4_3_bn[0][0]']

 conv3_block4_out (Activation)  (None, 8, 8, 512)    0           ['conv3_block4_add[0][0]']

 conv4_block1_1_conv (Conv2D)   (None, 4, 4, 256)    131328      ['conv3_block4_out[0][0]']

 conv4_block1_1_bn (BatchNormal  (None, 4, 4, 256)   1024        ['conv4_block1_1_conv[0][0]']
 ization)

 conv4_block1_1_relu (Activatio  (None, 4, 4, 256)   0           ['conv4_block1_1_bn[0][0]']
 n)

 conv4_block1_2_conv (Conv2D)   (None, 4, 4, 256)    590080      ['conv4_block1_1_relu[0][0]']

 conv4_block1_2_bn (BatchNormal  (None, 4, 4, 256)   1024        ['conv4_block1_2_conv[0][0]']
 ization)

 conv4_block1_2_relu (Activatio  (None, 4, 4, 256)   0           ['conv4_block1_2_bn[0][0]']
 n)

 conv4_block1_0_conv (Conv2D)   (None, 4, 4, 1024)   525312      ['conv3_block4_out[0][0]']

 conv4_block1_3_conv (Conv2D)   (None, 4, 4, 1024)   263168      ['conv4_block1_2_relu[0][0]']

 conv4_block1_0_bn (BatchNormal  (None, 4, 4, 1024)  4096        ['conv4_block1_0_conv[0][0]']
 ization)

 conv4_block1_3_bn (BatchNormal  (None, 4, 4, 1024)  4096        ['conv4_block1_3_conv[0][0]']
 ization)

 conv4_block1_add (Add)         (None, 4, 4, 1024)   0           ['conv4_block1_0_bn[0][0]',
                                                                  'conv4_block1_3_bn[0][0]']

 conv4_block1_out (Activation)  (None, 4, 4, 1024)   0           ['conv4_block1_add[0][0]']

 conv4_block2_1_conv (Conv2D)   (None, 4, 4, 256)    262400      ['conv4_block1_out[0][0]']

 conv4_block2_1_bn (BatchNormal  (None, 4, 4, 256)   1024        ['conv4_block2_1_conv[0][0]']
 ization)

 conv4_block2_1_relu (Activatio  (None, 4, 4, 256)   0           ['conv4_block2_1_bn[0][0]']
 n)

 conv4_block2_2_conv (Conv2D)   (None, 4, 4, 256)    590080      ['conv4_block2_1_relu[0][0]']

 conv4_block2_2_bn (BatchNormal  (None, 4, 4, 256)   1024        ['conv4_block2_2_conv[0][0]']
 ization)

 conv4_block2_2_relu (Activatio  (None, 4, 4, 256)   0           ['conv4_block2_2_bn[0][0]']
 n)

 conv4_block2_3_conv (Conv2D)   (None, 4, 4, 1024)   263168      ['conv4_block2_2_relu[0][0]']

 conv4_block2_3_bn (BatchNormal  (None, 4, 4, 1024)  4096        ['conv4_block2_3_conv[0][0]']
 ization)

 conv4_block2_add (Add)         (None, 4, 4, 1024)   0           ['conv4_block1_out[0][0]',
                                                                  'conv4_block2_3_bn[0][0]']

 conv4_block2_out (Activation)  (None, 4, 4, 1024)   0           ['conv4_block2_add[0][0]']

 conv4_block3_1_conv (Conv2D)   (None, 4, 4, 256)    262400      ['conv4_block2_out[0][0]']

 conv4_block3_1_bn (BatchNormal  (None, 4, 4, 256)   1024        ['conv4_block3_1_conv[0][0]']
 ization)

 conv4_block3_1_relu (Activatio  (None, 4, 4, 256)   0           ['conv4_block3_1_bn[0][0]']
 n)

 conv4_block3_2_conv (Conv2D)   (None, 4, 4, 256)    590080      ['conv4_block3_1_relu[0][0]']

 conv4_block3_2_bn (BatchNormal  (None, 4, 4, 256)   1024        ['conv4_block3_2_conv[0][0]']
 ization)

 conv4_block3_2_relu (Activatio  (None, 4, 4, 256)   0           ['conv4_block3_2_bn[0][0]']
 n)

 conv4_block3_3_conv (Conv2D)   (None, 4, 4, 1024)   263168      ['conv4_block3_2_relu[0][0]']

 conv4_block3_3_bn (BatchNormal  (None, 4, 4, 1024)  4096        ['conv4_block3_3_conv[0][0]']
 ization)

 conv4_block3_add (Add)         (None, 4, 4, 1024)   0           ['conv4_block2_out[0][0]',
                                                                  'conv4_block3_3_bn[0][0]']

 conv4_block3_out (Activation)  (None, 4, 4, 1024)   0           ['conv4_block3_add[0][0]']

 conv4_block4_1_conv (Conv2D)   (None, 4, 4, 256)    262400      ['conv4_block3_out[0][0]']

 conv4_block4_1_bn (BatchNormal  (None, 4, 4, 256)   1024        ['conv4_block4_1_conv[0][0]']
 ization)

 conv4_block4_1_relu (Activatio  (None, 4, 4, 256)   0           ['conv4_block4_1_bn[0][0]']
 n)

 conv4_block4_2_conv (Conv2D)   (None, 4, 4, 256)    590080      ['conv4_block4_1_relu[0][0]']

 conv4_block4_2_bn (BatchNormal  (None, 4, 4, 256)   1024        ['conv4_block4_2_conv[0][0]']
 ization)

 conv4_block4_2_relu (Activatio  (None, 4, 4, 256)   0           ['conv4_block4_2_bn[0][0]']
 n)

 conv4_block4_3_conv (Conv2D)   (None, 4, 4, 1024)   263168      ['conv4_block4_2_relu[0][0]']

 conv4_block4_3_bn (BatchNormal  (None, 4, 4, 1024)  4096        ['conv4_block4_3_conv[0][0]']
 ization)

 conv4_block4_add (Add)         (None, 4, 4, 1024)   0           ['conv4_block3_out[0][0]',
                                                                  'conv4_block4_3_bn[0][0]']

 conv4_block4_out (Activation)  (None, 4, 4, 1024)   0           ['conv4_block4_add[0][0]']

 conv4_block5_1_conv (Conv2D)   (None, 4, 4, 256)    262400      ['conv4_block4_out[0][0]']

 conv4_block5_1_bn (BatchNormal  (None, 4, 4, 256)   1024        ['conv4_block5_1_conv[0][0]']
 ization)

 conv4_block5_1_relu (Activatio  (None, 4, 4, 256)   0           ['conv4_block5_1_bn[0][0]']
 n)

 conv4_block5_2_conv (Conv2D)   (None, 4, 4, 256)    590080      ['conv4_block5_1_relu[0][0]']

 conv4_block5_2_bn (BatchNormal  (None, 4, 4, 256)   1024        ['conv4_block5_2_conv[0][0]']
 ization)

 conv4_block5_2_relu (Activatio  (None, 4, 4, 256)   0           ['conv4_block5_2_bn[0][0]']
 n)

 conv4_block5_3_conv (Conv2D)   (None, 4, 4, 1024)   263168      ['conv4_block5_2_relu[0][0]']

 conv4_block5_3_bn (BatchNormal  (None, 4, 4, 1024)  4096        ['conv4_block5_3_conv[0][0]']
 ization)

 conv4_block5_add (Add)         (None, 4, 4, 1024)   0           ['conv4_block4_out[0][0]',
                                                                  'conv4_block5_3_bn[0][0]']

 conv4_block5_out (Activation)  (None, 4, 4, 1024)   0           ['conv4_block5_add[0][0]']

 conv4_block6_1_conv (Conv2D)   (None, 4, 4, 256)    262400      ['conv4_block5_out[0][0]']

 conv4_block6_1_bn (BatchNormal  (None, 4, 4, 256)   1024        ['conv4_block6_1_conv[0][0]']
 ization)

 conv4_block6_1_relu (Activatio  (None, 4, 4, 256)   0           ['conv4_block6_1_bn[0][0]']
 n)

 conv4_block6_2_conv (Conv2D)   (None, 4, 4, 256)    590080      ['conv4_block6_1_relu[0][0]']

 conv4_block6_2_bn (BatchNormal  (None, 4, 4, 256)   1024        ['conv4_block6_2_conv[0][0]']
 ization)

 conv4_block6_2_relu (Activatio  (None, 4, 4, 256)   0           ['conv4_block6_2_bn[0][0]']
 n)

 conv4_block6_3_conv (Conv2D)   (None, 4, 4, 1024)   263168      ['conv4_block6_2_relu[0][0]']

 conv4_block6_3_bn (BatchNormal  (None, 4, 4, 1024)  4096        ['conv4_block6_3_conv[0][0]']
 ization)

 conv4_block6_add (Add)         (None, 4, 4, 1024)   0           ['conv4_block5_out[0][0]',
                                                                  'conv4_block6_3_bn[0][0]']

 conv4_block6_out (Activation)  (None, 4, 4, 1024)   0           ['conv4_block6_add[0][0]']

 conv5_block1_1_conv (Conv2D)   (None, 2, 2, 512)    524800      ['conv4_block6_out[0][0]']

 conv5_block1_1_bn (BatchNormal  (None, 2, 2, 512)   2048        ['conv5_block1_1_conv[0][0]']
 ization)

 conv5_block1_1_relu (Activatio  (None, 2, 2, 512)   0           ['conv5_block1_1_bn[0][0]']
 n)

 conv5_block1_2_conv (Conv2D)   (None, 2, 2, 512)    2359808     ['conv5_block1_1_relu[0][0]']

 conv5_block1_2_bn (BatchNormal  (None, 2, 2, 512)   2048        ['conv5_block1_2_conv[0][0]']
 ization)

 conv5_block1_2_relu (Activatio  (None, 2, 2, 512)   0           ['conv5_block1_2_bn[0][0]']
 n)

 conv5_block1_0_conv (Conv2D)   (None, 2, 2, 2048)   2099200     ['conv4_block6_out[0][0]']

 conv5_block1_3_conv (Conv2D)   (None, 2, 2, 2048)   1050624     ['conv5_block1_2_relu[0][0]']

 conv5_block1_0_bn (BatchNormal  (None, 2, 2, 2048)  8192        ['conv5_block1_0_conv[0][0]']
 ization)

 conv5_block1_3_bn (BatchNormal  (None, 2, 2, 2048)  8192        ['conv5_block1_3_conv[0][0]']
 ization)

 conv5_block1_add (Add)         (None, 2, 2, 2048)   0           ['conv5_block1_0_bn[0][0]',
                                                                  'conv5_block1_3_bn[0][0]']

 conv5_block1_out (Activation)  (None, 2, 2, 2048)   0           ['conv5_block1_add[0][0]']

 conv5_block2_1_conv (Conv2D)   (None, 2, 2, 512)    1049088     ['conv5_block1_out[0][0]']

 conv5_block2_1_bn (BatchNormal  (None, 2, 2, 512)   2048        ['conv5_block2_1_conv[0][0]']
 ization)

 conv5_block2_1_relu (Activatio  (None, 2, 2, 512)   0           ['conv5_block2_1_bn[0][0]']
 n)

 conv5_block2_2_conv (Conv2D)   (None, 2, 2, 512)    2359808     ['conv5_block2_1_relu[0][0]']

 conv5_block2_2_bn (BatchNormal  (None, 2, 2, 512)   2048        ['conv5_block2_2_conv[0][0]']
 ization)

 conv5_block2_2_relu (Activatio  (None, 2, 2, 512)   0           ['conv5_block2_2_bn[0][0]']
 n)

 conv5_block2_3_conv (Conv2D)   (None, 2, 2, 2048)   1050624     ['conv5_block2_2_relu[0][0]']

 conv5_block2_3_bn (BatchNormal  (None, 2, 2, 2048)  8192        ['conv5_block2_3_conv[0][0]']
 ization)

 conv5_block2_add (Add)         (None, 2, 2, 2048)   0           ['conv5_block1_out[0][0]',
                                                                  'conv5_block2_3_bn[0][0]']

 conv5_block2_out (Activation)  (None, 2, 2, 2048)   0           ['conv5_block2_add[0][0]']

 conv5_block3_1_conv (Conv2D)   (None, 2, 2, 512)    1049088     ['conv5_block2_out[0][0]']

 conv5_block3_1_bn (BatchNormal  (None, 2, 2, 512)   2048        ['conv5_block3_1_conv[0][0]']
 ization)

 conv5_block3_1_relu (Activatio  (None, 2, 2, 512)   0           ['conv5_block3_1_bn[0][0]']
 n)

 conv5_block3_2_conv (Conv2D)   (None, 2, 2, 512)    2359808     ['conv5_block3_1_relu[0][0]']

 conv5_block3_2_bn (BatchNormal  (None, 2, 2, 512)   2048        ['conv5_block3_2_conv[0][0]']
 ization)

 conv5_block3_2_relu (Activatio  (None, 2, 2, 512)   0           ['conv5_block3_2_bn[0][0]']
 n)

 conv5_block3_3_conv (Conv2D)   (None, 2, 2, 2048)   1050624     ['conv5_block3_2_relu[0][0]']

 conv5_block3_3_bn (BatchNormal  (None, 2, 2, 2048)  8192        ['conv5_block3_3_conv[0][0]']
 ization)

 conv5_block3_add (Add)         (None, 2, 2, 2048)   0           ['conv5_block2_out[0][0]',
                                                                  'conv5_block3_3_bn[0][0]']

 conv5_block3_out (Activation)  (None, 2, 2, 2048)   0           ['conv5_block3_add[0][0]']

 avg_pool (GlobalAveragePooling  (None, 2048)        0           ['conv5_block3_out[0][0]']
 2D)

==================================================================================================
Total params: 23,587,712
Trainable params: 0
Non-trainable params: 23,587,712
__________________________________________________________________________________________________
ResNet50 Base model: None
Model: "model"
_________________________________________________________________
 Layer (type)                Output Shape              Param #
=================================================================
 input_2 (InputLayer)        [(None, 64, 64, 3)]       0

 data_augmentation (Sequenti  (None, 64, 64, 3)        0
 al)

 tf.__operators__.getitem (S  (None, 64, 64, 3)        0
 licingOpLambda)

 tf.nn.bias_add (TFOpLambda)  (None, 64, 64, 3)        0

 resnet50 (Functional)       (None, 2048)              23587712

 flatten (Flatten)           (None, 2048)              0

 dense (Dense)               (None, 128)               262272

 dropout (Dropout)           (None, 128)               0

 dense_1 (Dense)             (None, 10)                1290

=================================================================
Total params: 23,851,274
Trainable params: 263,562
Non-trainable params: 23,587,712
_________________________________________________________________
ResNet50 Model: None
Epoch 1/25
WARNING:tensorflow:Using a while_loop for converting RngReadAndSkip cause there is no registered converter for this op.
WARNING:tensorflow:Using a while_loop for converting Bitcast cause there is no registered converter for this op.
…
600/600 [==============================] - 256s 426ms/step - loss: 0.2296 - accuracy: 0.9206 - val_loss: 0.2070 - val_accuracy: 0.9306
Epoch 25/25
600/600 [==============================] - 263s 437ms/step - loss: 0.2317 - accuracy: 0.9206 - val_loss: 0.2046 - val_accuracy: 0.9310
ResNet50 phase A history: {'loss': [… 'accuracy': [… 'val_loss': [… 'val_accuracy': [… Model: "model"
_________________________________________________________________
 Layer (type)                Output Shape              Param #
=================================================================
 input_2 (InputLayer)        [(None, 64, 64, 3)]       0

 data_augmentation (Sequenti  (None, 64, 64, 3)        0
 al)

 tf.__operators__.getitem (S  (None, 64, 64, 3)        0
 licingOpLambda)

 tf.nn.bias_add (TFOpLambda)  (None, 64, 64, 3)        0

 resnet50 (Functional)       (None, 2048)              23587712

 flatten (Flatten)           (None, 2048)              0

 dense (Dense)               (None, 128)               262272

 dropout (Dropout)           (None, 128)               0

 dense_1 (Dense)             (None, 10)                1290

=================================================================
Total params: 23,851,274
Trainable params: 4,729,226
Non-trainable params: 19,122,048
_________________________________________________________________
ResNet50 Model: None
Epoch 1/25
WARNING:tensorflow:Using a while_loop for converting RngReadAndSkip cause there is no registered converter for this op.
WARNING:tensorflow:Using a while_loop for converting Bitcast cause there is no registered converter for this op.
…
600/600 [==============================] - 260s 434ms/step - loss: 0.0796 - accuracy: 0.9734 - val_loss: 0.2148 - val_accuracy: 0.9383
ResNet50 history: {'loss': [… 'accuracy': [… 'val_loss': [… 'val_accuracy': [… 150/150 [==============================] - 3s 16ms/step
resnet50_acc: 0.9383333333333334
Model: "vgg16"
_________________________________________________________________
 Layer (type)                Output Shape              Param #
=================================================================
 input_3 (InputLayer)        [(None, 64, 64, 3)]       0

 block1_conv1 (Conv2D)       (None, 64, 64, 64)        1792

 block1_conv2 (Conv2D)       (None, 64, 64, 64)        36928

 block1_pool (MaxPooling2D)  (None, 32, 32, 64)        0

 block2_conv1 (Conv2D)       (None, 32, 32, 128)       73856

 block2_conv2 (Conv2D)       (None, 32, 32, 128)       147584

 block2_pool (MaxPooling2D)  (None, 16, 16, 128)       0

 block3_conv1 (Conv2D)       (None, 16, 16, 256)       295168

 block3_conv2 (Conv2D)       (None, 16, 16, 256)       590080

 block3_conv3 (Conv2D)       (None, 16, 16, 256)       590080

 block3_pool (MaxPooling2D)  (None, 8, 8, 256)         0

 block4_conv1 (Conv2D)       (None, 8, 8, 512)         1180160

 block4_conv2 (Conv2D)       (None, 8, 8, 512)         2359808

 block4_conv3 (Conv2D)       (None, 8, 8, 512)         2359808

 block4_pool (MaxPooling2D)  (None, 4, 4, 512)         0

 block5_conv1 (Conv2D)       (None, 4, 4, 512)         2359808

 block5_conv2 (Conv2D)       (None, 4, 4, 512)         2359808

 block5_conv3 (Conv2D)       (None, 4, 4, 512)         2359808

 block5_pool (MaxPooling2D)  (None, 2, 2, 512)         0

=================================================================
Total params: 14,714,688
Trainable params: 0
Non-trainable params: 14,714,688
_________________________________________________________________
VGG16 Base model: None
Model: "model_1"
_________________________________________________________________
 Layer (type)                Output Shape              Param #
=================================================================
 input_4 (InputLayer)        [(None, 64, 64, 3)]       0

 data_augmentation (Sequenti  (None, 64, 64, 3)        0
 al)

 tf.__operators__.getitem_1   (None, 64, 64, 3)        0
 (SlicingOpLambda)

 tf.nn.bias_add_1 (TFOpLambd  (None, 64, 64, 3)        0
 a)

 vgg16 (Functional)          (None, 2, 2, 512)         14714688

 global_average_pooling2d (G  (None, 512)              0
 lobalAveragePooling2D)

 dense_2 (Dense)             (None, 128)               65664

 dropout_1 (Dropout)         (None, 128)               0

 dense_3 (Dense)             (None, 10)                1290

=================================================================
Total params: 14,781,642
Trainable params: 66,954
Non-trainable params: 14,714,688
_________________________________________________________________
VGG16 Model: None
Epoch 1/25
WARNING:tensorflow:Using a while_loop for converting RngReadAndSkip cause there is no registered converter for this op.
WARNING:tensorflow:Using a while_loop for converting Bitcast cause there is no registered converter for this op.
…
