…
2025-05-08 15:53:05.152286: I tensorflow/core/common_runtime/gpu/gpu_device.cc:1616] Created device /job:localhost/replica:0/task:0/device:GPU:1 with 8943 MB memory:  -> device: 1, name: NVIDIA GeForce RTX 2080 Ti, pci bus id: 0000:65:00.0, compute capability: 7.5
Model: "resnet50"
__________________________________________________________________________________________________
 Layer (type)                   Output Shape         Param #     Connected to
==================================================================================================
 input_1 (InputLayer)           [(None, 64, 64, 3)]  0           []

 conv1_pad (ZeroPadding2D)      (None, 70, 70, 3)    0           ['input_1[0][0]']

 conv1_conv (Conv2D)            (None, 32, 32, 64)   9472        ['conv1_pad[0][0]']

 conv1_bn (BatchNormalization)  (None, 32, 32, 64)   256         ['conv1_conv[0][0]']

 conv1_relu (Activation)        (None, 32, 32, 64)   0           ['conv1_bn[0][0]']

 pool1_pad (ZeroPadding2D)      (None, 34, 34, 64)   0           ['conv1_relu[0][0]']

 pool1_pool (MaxPooling2D)      (None, 16, 16, 64)   0           ['pool1_pad[0][0]']

 conv2_block1_1_conv (Conv2D)   (None, 16, 16, 64)   4160        ['pool1_pool[0][0]']

 conv2_block1_1_bn (BatchNormal  (None, 16, 16, 64)  256         ['conv2_block1_1_conv[0][0]']
 ization)

 conv2_block1_1_relu (Activatio  (None, 16, 16, 64)  0           ['conv2_block1_1_bn[0][0]']
 n)

 conv2_block1_2_conv (Conv2D)   (None, 16, 16, 64)   36928       ['conv2_block1_1_relu[0][0]']

 conv2_block1_2_bn (BatchNormal  (None, 16, 16, 64)  256         ['conv2_block1_2_conv[0][0]']
 ization)

 conv2_block1_2_relu (Activatio  (None, 16, 16, 64)  0           ['conv2_block1_2_bn[0][0]']
 n)

 conv2_block1_0_conv (Conv2D)   (None, 16, 16, 256)  16640       ['pool1_pool[0][0]']

 conv2_block1_3_conv (Conv2D)   (None, 16, 16, 256)  16640       ['conv2_block1_2_relu[0][0]']

 conv2_block1_0_bn (BatchNormal  (None, 16, 16, 256)  1024       ['conv2_block1_0_conv[0][0]']
 ization)

 conv2_block1_3_bn (BatchNormal  (None, 16, 16, 256)  1024       ['conv2_block1_3_conv[0][0]']
 ization)

 conv2_block1_add (Add)         (None, 16, 16, 256)  0           ['conv2_block1_0_bn[0][0]',
                                                                  'conv2_block1_3_bn[0][0]']

 conv2_block1_out (Activation)  (None, 16, 16, 256)  0           ['conv2_block1_add[0][0]']

 conv2_block2_1_conv (Conv2D)   (None, 16, 16, 64)   16448       ['conv2_block1_out[0][0]']

 conv2_block2_1_bn (BatchNormal  (None, 16, 16, 64)  256         ['conv2_block2_1_conv[0][0]']
 ization)

 conv2_block2_1_relu (Activatio  (None, 16, 16, 64)  0           ['conv2_block2_1_bn[0][0]']
 n)

 conv2_block2_2_conv (Conv2D)   (None, 16, 16, 64)   36928       ['conv2_block2_1_relu[0][0]']

 conv2_block2_2_bn (BatchNormal  (None, 16, 16, 64)  256         ['conv2_block2_2_conv[0][0]']
 ization)

 conv2_block2_2_relu (Activatio  (None, 16, 16, 64)  0           ['conv2_block2_2_bn[0][0]']
 n)

 conv2_block2_3_conv (Conv2D)   (None, 16, 16, 256)  16640       ['conv2_block2_2_relu[0][0]']

 conv2_block2_3_bn (BatchNormal  (None, 16, 16, 256)  1024       ['conv2_block2_3_conv[0][0]']
 ization)

 conv2_block2_add (Add)         (None, 16, 16, 256)  0           ['conv2_block1_out[0][0]',
                                                                  'conv2_block2_3_bn[0][0]']

 conv2_block2_out (Activation)  (None, 16, 16, 256)  0           ['conv2_block2_add[0][0]']

 conv2_block3_1_conv (Conv2D)   (None, 16, 16, 64)   16448       ['conv2_block2_out[0][0]']

 conv2_block3_1_bn (BatchNormal  (None, 16, 16, 64)  256         ['conv2_block3_1_conv[0][0]']
 ization)

 conv2_block3_1_relu (Activatio  (None, 16, 16, 64)  0           ['conv2_block3_1_bn[0][0]']
 n)

 conv2_block3_2_conv (Conv2D)   (None, 16, 16, 64)   36928       ['conv2_block3_1_relu[0][0]']

 conv2_block3_2_bn (BatchNormal  (None, 16, 16, 64)  256         ['conv2_block3_2_conv[0][0]']
 ization)

 conv2_block3_2_relu (Activatio  (None, 16, 16, 64)  0           ['conv2_block3_2_bn[0][0]']
 n)

 conv2_block3_3_conv (Conv2D)   (None, 16, 16, 256)  16640       ['conv2_block3_2_relu[0][0]']

 conv2_block3_3_bn (BatchNormal  (None, 16, 16, 256)  1024       ['conv2_block3_3_conv[0][0]']
 ization)

 conv2_block3_add (Add)         (None, 16, 16, 256)  0           ['conv2_block2_out[0][0]',
                                                                  'conv2_block3_3_bn[0][0]']

 conv2_block3_out (Activation)  (None, 16, 16, 256)  0           ['conv2_block3_add[0][0]']

 conv3_block1_1_conv (Conv2D)   (None, 8, 8, 128)    32896       ['conv2_block3_out[0][0]']

 conv3_block1_1_bn (BatchNormal  (None, 8, 8, 128)   512         ['conv3_block1_1_conv[0][0]']
 ization)

 conv3_block1_1_relu (Activatio  (None, 8, 8, 128)   0           ['conv3_block1_1_bn[0][0]']
 n)

 conv3_block1_2_conv (Conv2D)   (None, 8, 8, 128)    147584      ['conv3_block1_1_relu[0][0]']

 conv3_block1_2_bn (BatchNormal  (None, 8, 8, 128)   512         ['conv3_block1_2_conv[0][0]']
 ization)

 conv3_block1_2_relu (Activatio  (None, 8, 8, 128)   0           ['conv3_block1_2_bn[0][0]']
 n)

 conv3_block1_0_conv (Conv2D)   (None, 8, 8, 512)    131584      ['conv2_block3_out[0][0]']

 conv3_block1_3_conv (Conv2D)   (None, 8, 8, 512)    66048       ['conv3_block1_2_relu[0][0]']

 conv3_block1_0_bn (BatchNormal  (None, 8, 8, 512)   2048        ['conv3_block1_0_conv[0][0]']
 ization)

 conv3_block1_3_bn (BatchNormal  (None, 8, 8, 512)   2048        ['conv3_block1_3_conv[0][0]']
 ization)

 conv3_block1_add (Add)         (None, 8, 8, 512)    0           ['conv3_block1_0_bn[0][0]',
                                                                  'conv3_block1_3_bn[0][0]']

 conv3_block1_out (Activation)  (None, 8, 8, 512)    0           ['conv3_block1_add[0][0]']

 conv3_block2_1_conv (Conv2D)   (None, 8, 8, 128)    65664       ['conv3_block1_out[0][0]']

 conv3_block2_1_bn (BatchNormal  (None, 8, 8, 128)   512         ['conv3_block2_1_conv[0][0]']
 ization)

 conv3_block2_1_relu (Activatio  (None, 8, 8, 128)   0           ['conv3_block2_1_bn[0][0]']
 n)

 conv3_block2_2_conv (Conv2D)   (None, 8, 8, 128)    147584      ['conv3_block2_1_relu[0][0]']

 conv3_block2_2_bn (BatchNormal  (None, 8, 8, 128)   512         ['conv3_block2_2_conv[0][0]']
 ization)

 conv3_block2_2_relu (Activatio  (None, 8, 8, 128)   0           ['conv3_block2_2_bn[0][0]']
 n)

 conv3_block2_3_conv (Conv2D)   (None, 8, 8, 512)    66048       ['conv3_block2_2_relu[0][0]']

 conv3_block2_3_bn (BatchNormal  (None, 8, 8, 512)   2048        ['conv3_block2_3_conv[0][0]']
 ization)

 conv3_block2_add (Add)         (None, 8, 8, 512)    0           ['conv3_block1_out[0][0]',
                                                                  'conv3_block2_3_bn[0][0]']

 conv3_block2_out (Activation)  (None, 8, 8, 512)    0           ['conv3_block2_add[0][0]']

 conv3_block3_1_conv (Conv2D)   (None, 8, 8, 128)    65664       ['conv3_block2_out[0][0]']

 conv3_block3_1_bn (BatchNormal  (None, 8, 8, 128)   512         ['conv3_block3_1_conv[0][0]']
 ization)

 conv3_block3_1_relu (Activatio  (None, 8, 8, 128)   0           ['conv3_block3_1_bn[0][0]']
 n)

 conv3_block3_2_conv (Conv2D)   (None, 8, 8, 128)    147584      ['conv3_block3_1_relu[0][0]']

 conv3_block3_2_bn (BatchNormal  (None, 8, 8, 128)   512         ['conv3_block3_2_conv[0][0]']
 ization)

 conv3_block3_2_relu (Activatio  (None, 8, 8, 128)   0           ['conv3_block3_2_bn[0][0]']
 n)

 conv3_block3_3_conv (Conv2D)   (None, 8, 8, 512)    66048       ['conv3_block3_2_relu[0][0]']

 conv3_block3_3_bn (BatchNormal  (None, 8, 8, 512)   2048        ['conv3_block3_3_conv[0][0]']
 ization)

 conv3_block3_add (Add)         (None, 8, 8, 512)    0           ['conv3_block2_out[0][0]',
                                                                  'conv3_block3_3_bn[0][0]']

 conv3_block3_out (Activation)  (None, 8, 8, 512)    0           ['conv3_block3_add[0][0]']

 conv3_block4_1_conv (Conv2D)   (None, 8, 8, 128)    65664       ['conv3_block3_out[0][0]']

 conv3_block4_1_bn (BatchNormal  (None, 8, 8, 128)   512         ['conv3_block4_1_conv[0][0]']
 ization)

 conv3_block4_1_relu (Activatio  (None, 8, 8, 128)   0           ['conv3_block4_1_bn[0][0]']
 n)

 conv3_block4_2_conv (Conv2D)   (None, 8, 8, 128)    147584      ['conv3_block4_1_relu[0][0]']

 conv3_block4_2_bn (BatchNormal  (None, 8, 8, 128)   512         ['conv3_block4_2_conv[0][0]']
 ization)

 conv3_block4_2_relu (Activatio  (None, 8, 8, 128)   0           ['conv3_block4_2_bn[0][0]']
 n)

 conv3_block4_3_conv (Conv2D)   (None, 8, 8, 512)    66048       ['conv3_block4_2_relu[0][0]']

 conv3_block4_3_bn (BatchNormal  (None, 8, 8, 512)   2048        ['conv3_block4_3_conv[0][0]']
 ization)

 conv3_block4_add (Add)         (None, 8, 8, 512)    0           ['conv3_block3_out[0][0]',
                                                                  'conv3_block4_3_bn[0][0]']

 conv3_block4_out (Activation)  (None, 8, 8, 512)    0           ['conv3_block4_add[0][0]']

 conv4_block1_1_conv (Conv2D)   (None, 4, 4, 256)    131328      ['conv3_block4_out[0][0]']

 conv4_block1_1_bn (BatchNormal  (None, 4, 4, 256)   1024        ['conv4_block1_1_conv[0][0]']
 ization)

 conv4_block1_1_relu (Activatio  (None, 4, 4, 256)   0           ['conv4_block1_1_bn[0][0]']
 n)

 conv4_block1_2_conv (Conv2D)   (None, 4, 4, 256)    590080      ['conv4_block1_1_relu[0][0]']

 conv4_block1_2_bn (BatchNormal  (None, 4, 4, 256)   1024        ['conv4_block1_2_conv[0][0]']
 ization)

 conv4_block1_2_relu (Activatio  (None, 4, 4, 256)   0           ['conv4_block1_2_bn[0][0]']
 n)

 conv4_block1_0_conv (Conv2D)   (None, 4, 4, 1024)   525312      ['conv3_block4_out[0][0]']

 conv4_block1_3_conv (Conv2D)   (None, 4, 4, 1024)   263168      ['conv4_block1_2_relu[0][0]']

 conv4_block1_0_bn (BatchNormal  (None, 4, 4, 1024)  4096        ['conv4_block1_0_conv[0][0]']
 ization)

 conv4_block1_3_bn (BatchNormal  (None, 4, 4, 1024)  4096        ['conv4_block1_3_conv[0][0]']
 ization)

 conv4_block1_add (Add)         (None, 4, 4, 1024)   0           ['conv4_block1_0_bn[0][0]',
                                                                  'conv4_block1_3_bn[0][0]']

 conv4_block1_out (Activation)  (None, 4, 4, 1024)   0           ['conv4_block1_add[0][0]']

 conv4_block2_1_conv (Conv2D)   (None, 4, 4, 256)    262400      ['conv4_block1_out[0][0]']

 conv4_block2_1_bn (BatchNormal  (None, 4, 4, 256)   1024        ['conv4_block2_1_conv[0][0]']
 ization)

 conv4_block2_1_relu (Activatio  (None, 4, 4, 256)   0           ['conv4_block2_1_bn[0][0]']
 n)

 conv4_block2_2_conv (Conv2D)   (None, 4, 4, 256)    590080      ['conv4_block2_1_relu[0][0]']

 conv4_block2_2_bn (BatchNormal  (None, 4, 4, 256)   1024        ['conv4_block2_2_conv[0][0]']
 ization)

 conv4_block2_2_relu (Activatio  (None, 4, 4, 256)   0           ['conv4_block2_2_bn[0][0]']
 n)

 conv4_block2_3_conv (Conv2D)   (None, 4, 4, 1024)   263168      ['conv4_block2_2_relu[0][0]']

 conv4_block2_3_bn (BatchNormal  (None, 4, 4, 1024)  4096        ['conv4_block2_3_conv[0][0]']
 ization)

 conv4_block2_add (Add)         (None, 4, 4, 1024)   0           ['conv4_block1_out[0][0]',
                                                                  'conv4_block2_3_bn[0][0]']

 conv4_block2_out (Activation)  (None, 4, 4, 1024)   0           ['conv4_block2_add[0][0]']

 conv4_block3_1_conv (Conv2D)   (None, 4, 4, 256)    262400      ['conv4_block2_out[0][0]']

 conv4_block3_1_bn (BatchNormal  (None, 4, 4, 256)   1024        ['conv4_block3_1_conv[0][0]']
 ization)

 conv4_block3_1_relu (Activatio  (None, 4, 4, 256)   0           ['conv4_block3_1_bn[0][0]']
 n)

 conv4_block3_2_conv (Conv2D)   (None, 4, 4, 256)    590080      ['conv4_block3_1_relu[0][0]']

 conv4_block3_2_bn (BatchNormal  (None, 4, 4, 256)   1024        ['conv4_block3_2_conv[0][0]']
 ization)

 conv4_block3_2_relu (Activatio  (None, 4, 4, 256)   0           ['conv4_block3_2_bn[0][0]']
 n)

 conv4_block3_3_conv (Conv2D)   (None, 4, 4, 1024)   263168      ['conv4_block3_2_relu[0][0]']

 conv4_block3_3_bn (BatchNormal  (None, 4, 4, 1024)  4096        ['conv4_block3_3_conv[0][0]']
 ization)

 conv4_block3_add (Add)         (None, 4, 4, 1024)   0           ['conv4_block2_out[0][0]',
                                                                  'conv4_block3_3_bn[0][0]']

 conv4_block3_out (Activation)  (None, 4, 4, 1024)   0           ['conv4_block3_add[0][0]']

 conv4_block4_1_conv (Conv2D)   (None, 4, 4, 256)    262400      ['conv4_block3_out[0][0]']

 conv4_block4_1_bn (BatchNormal  (None, 4, 4, 256)   1024        ['conv4_block4_1_conv[0][0]']
 ization)

 conv4_block4_1_relu (Activatio  (None, 4, 4, 256)   0           ['conv4_block4_1_bn[0][0]']
 n)

 conv4_block4_2_conv (Conv2D)   (None, 4, 4, 256)    590080      ['conv4_block4_1_relu[0][0]']

 conv4_block4_2_bn (BatchNormal  (None, 4, 4, 256)   1024        ['conv4_block4_2_conv[0][0]']
 ization)

 conv4_block4_2_relu (Activatio  (None, 4, 4, 256)   0           ['conv4_block4_2_bn[0][0]']
 n)

 conv4_block4_3_conv (Conv2D)   (None, 4, 4, 1024)   263168      ['conv4_block4_2_relu[0][0]']

 conv4_block4_3_bn (BatchNormal  (None, 4, 4, 1024)  4096        ['conv4_block4_3_conv[0][0]']
 ization)

 conv4_block4_add (Add)         (None, 4, 4, 1024)   0           ['conv4_block3_out[0][0]',
                                                                  'conv4_block4_3_bn[0][0]']

 conv4_block4_out (Activation)  (None, 4, 4, 1024)   0           ['conv4_block4_add[0][0]']

 conv4_block5_1_conv (Conv2D)   (None, 4, 4, 256)    262400      ['conv4_block4_out[0][0]']

 conv4_block5_1_bn (BatchNormal  (None, 4, 4, 256)   1024        ['conv4_block5_1_conv[0][0]']
 ization)

 conv4_block5_1_relu (Activatio  (None, 4, 4, 256)   0           ['conv4_block5_1_bn[0][0]']
 n)

 conv4_block5_2_conv (Conv2D)   (None, 4, 4, 256)    590080      ['conv4_block5_1_relu[0][0]']

 conv4_block5_2_bn (BatchNormal  (None, 4, 4, 256)   1024        ['conv4_block5_2_conv[0][0]']
 ization)

 conv4_block5_2_relu (Activatio  (None, 4, 4, 256)   0           ['conv4_block5_2_bn[0][0]']
 n)

 conv4_block5_3_conv (Conv2D)   (None, 4, 4, 1024)   263168      ['conv4_block5_2_relu[0][0]']

 conv4_block5_3_bn (BatchNormal  (None, 4, 4, 1024)  4096        ['conv4_block5_3_conv[0][0]']
 ization)

 conv4_block5_add (Add)         (None, 4, 4, 1024)   0           ['conv4_block4_out[0][0]',
                                                                  'conv4_block5_3_bn[0][0]']

 conv4_block5_out (Activation)  (None, 4, 4, 1024)   0           ['conv4_block5_add[0][0]']

 conv4_block6_1_conv (Conv2D)   (None, 4, 4, 256)    262400      ['conv4_block5_out[0][0]']

 conv4_block6_1_bn (BatchNormal  (None, 4, 4, 256)   1024        ['conv4_block6_1_conv[0][0]']
 ization)

 conv4_block6_1_relu (Activatio  (None, 4, 4, 256)   0           ['conv4_block6_1_bn[0][0]']
 n)

 conv4_block6_2_conv (Conv2D)   (None, 4, 4, 256)    590080      ['conv4_block6_1_relu[0][0]']

 conv4_block6_2_bn (BatchNormal  (None, 4, 4, 256)   1024        ['conv4_block6_2_conv[0][0]']
 ization)

 conv4_block6_2_relu (Activatio  (None, 4, 4, 256)   0           ['conv4_block6_2_bn[0][0]']
 n)

 conv4_block6_3_conv (Conv2D)   (None, 4, 4, 1024)   263168      ['conv4_block6_2_relu[0][0]']

 conv4_block6_3_bn (BatchNormal  (None, 4, 4, 1024)  4096        ['conv4_block6_3_conv[0][0]']
 ization)

 conv4_block6_add (Add)         (None, 4, 4, 1024)   0           ['conv4_block5_out[0][0]',
                                                                  'conv4_block6_3_bn[0][0]']

 conv4_block6_out (Activation)  (None, 4, 4, 1024)   0           ['conv4_block6_add[0][0]']

 conv5_block1_1_conv (Conv2D)   (None, 2, 2, 512)    524800      ['conv4_block6_out[0][0]']

 conv5_block1_1_bn (BatchNormal  (None, 2, 2, 512)   2048        ['conv5_block1_1_conv[0][0]']
 ization)

 conv5_block1_1_relu (Activatio  (None, 2, 2, 512)   0           ['conv5_block1_1_bn[0][0]']
 n)

 conv5_block1_2_conv (Conv2D)   (None, 2, 2, 512)    2359808     ['conv5_block1_1_relu[0][0]']

 conv5_block1_2_bn (BatchNormal  (None, 2, 2, 512)   2048        ['conv5_block1_2_conv[0][0]']
 ization)

 conv5_block1_2_relu (Activatio  (None, 2, 2, 512)   0           ['conv5_block1_2_bn[0][0]']
 n)

 conv5_block1_0_conv (Conv2D)   (None, 2, 2, 2048)   2099200     ['conv4_block6_out[0][0]']

 conv5_block1_3_conv (Conv2D)   (None, 2, 2, 2048)   1050624     ['conv5_block1_2_relu[0][0]']

 conv5_block1_0_bn (BatchNormal  (None, 2, 2, 2048)  8192        ['conv5_block1_0_conv[0][0]']
 ization)

 conv5_block1_3_bn (BatchNormal  (None, 2, 2, 2048)  8192        ['conv5_block1_3_conv[0][0]']
 ization)

 conv5_block1_add (Add)         (None, 2, 2, 2048)   0           ['conv5_block1_0_bn[0][0]',
                                                                  'conv5_block1_3_bn[0][0]']

 conv5_block1_out (Activation)  (None, 2, 2, 2048)   0           ['conv5_block1_add[0][0]']

 conv5_block2_1_conv (Conv2D)   (None, 2, 2, 512)    1049088     ['conv5_block1_out[0][0]']

 conv5_block2_1_bn (BatchNormal  (None, 2, 2, 512)   2048        ['conv5_block2_1_conv[0][0]']
 ization)

 conv5_block2_1_relu (Activatio  (None, 2, 2, 512)   0           ['conv5_block2_1_bn[0][0]']
 n)

 conv5_block2_2_conv (Conv2D)   (None, 2, 2, 512)    2359808     ['conv5_block2_1_relu[0][0]']

 conv5_block2_2_bn (BatchNormal  (None, 2, 2, 512)   2048        ['conv5_block2_2_conv[0][0]']
 ization)

 conv5_block2_2_relu (Activatio  (None, 2, 2, 512)   0           ['conv5_block2_2_bn[0][0]']
 n)

 conv5_block2_3_conv (Conv2D)   (None, 2, 2, 2048)   1050624     ['conv5_block2_2_relu[0][0]']

 conv5_block2_3_bn (BatchNormal  (None, 2, 2, 2048)  8192        ['conv5_block2_3_conv[0][0]']
 ization)

 conv5_block2_add (Add)         (None, 2, 2, 2048)   0           ['conv5_block1_out[0][0]',
                                                                  'conv5_block2_3_bn[0][0]']

 conv5_block2_out (Activation)  (None, 2, 2, 2048)   0           ['conv5_block2_add[0][0]']

 conv5_block3_1_conv (Conv2D)   (None, 2, 2, 512)    1049088     ['conv5_block2_out[0][0]']

 conv5_block3_1_bn (BatchNormal  (None, 2, 2, 512)   2048        ['conv5_block3_1_conv[0][0]']
 ization)

 conv5_block3_1_relu (Activatio  (None, 2, 2, 512)   0           ['conv5_block3_1_bn[0][0]']
 n)

 conv5_block3_2_conv (Conv2D)   (None, 2, 2, 512)    2359808     ['conv5_block3_1_relu[0][0]']

 conv5_block3_2_bn (BatchNormal  (None, 2, 2, 512)   2048        ['conv5_block3_2_conv[0][0]']
 ization)

 conv5_block3_2_relu (Activatio  (None, 2, 2, 512)   0           ['conv5_block3_2_bn[0][0]']
 n)

 conv5_block3_3_conv (Conv2D)   (None, 2, 2, 2048)   1050624     ['conv5_block3_2_relu[0][0]']

 conv5_block3_3_bn (BatchNormal  (None, 2, 2, 2048)  8192        ['conv5_block3_3_conv[0][0]']
 ization)

 conv5_block3_add (Add)         (None, 2, 2, 2048)   0           ['conv5_block2_out[0][0]',
                                                                  'conv5_block3_3_bn[0][0]']

 conv5_block3_out (Activation)  (None, 2, 2, 2048)   0           ['conv5_block3_add[0][0]']

 avg_pool (GlobalAveragePooling  (None, 2048)        0           ['conv5_block3_out[0][0]']
 2D)

==================================================================================================
Total params: 23,587,712
Trainable params: 0
Non-trainable params: 23,587,712
__________________________________________________________________________________________________
ResNet50 Base model: None
Model: "model"
_________________________________________________________________
 Layer (type)                Output Shape              Param #
=================================================================
 input_2 (InputLayer)        [(None, 64, 64, 3)]       0

 data_augmentation (Sequenti  (None, 64, 64, 3)        0
 al)

 tf.__operators__.getitem (S  (None, 64, 64, 3)        0
 licingOpLambda)

 tf.nn.bias_add (TFOpLambda)  (None, 64, 64, 3)        0

 resnet50 (Functional)       (None, 2048)              23587712

 flatten (Flatten)           (None, 2048)              0

 dense (Dense)               (None, 128)               262272

 dropout (Dropout)           (None, 128)               0

 dense_1 (Dense)             (None, 10)                1290

=================================================================
Total params: 23,851,274
Trainable params: 263,562
Non-trainable params: 23,587,712
_________________________________________________________________
ResNet50 Model: None
Epoch 1/25
WARNING:tensorflow:Using a while_loop for converting RngReadAndSkip cause there is no registered converter for this op.
WARNING:tensorflow:Using a while_loop for converting Bitcast cause there is no registered converter for this op.
…
600/600 [==============================] - 348s 579ms/step - loss: 0.2338 - accuracy: 0.9221 - val_loss: 0.2052 - val_accuracy: 0.9302
Epoch 24/25
600/600 [==============================] - 346s 577ms/step - loss: 0.2279 - accuracy: 0.9234 - val_loss: 0.2023 - val_accuracy: 0.9321
Epoch 25/25
600/600 [==============================] - 346s 576ms/step - loss: 0.2277 - accuracy: 0.9224 - val_loss: 0.2027 - val_accuracy: 0.9312
Model: "model_1"
_________________________________________________________________
 Layer (type)                Output Shape              Param #
=================================================================
 input_4 (InputLayer)        [(None, 64, 64, 3)]       0

 data_augmentation (Sequenti  (None, 64, 64, 3)        0
 al)

 tf.__operators__.getitem_1   (None, 64, 64, 3)        0
 (SlicingOpLambda)

 tf.nn.bias_add_1 (TFOpLambd  (None, 64, 64, 3)        0
 a)

 resnet50 (Functional)       (None, 2048)              23587712

 flatten_1 (Flatten)         (None, 2048)              0

 dense_2 (Dense)             (None, 128)               262272

 dropout_1 (Dropout)         (None, 128)               0

 dense_3 (Dense)             (None, 10)                1290

=================================================================
Total params: 23,851,274
Trainable params: 4,729,226
Non-trainable params: 19,122,048
_________________________________________________________________
ResNet50 Model: None
Epoch 1/50
WARNING:tensorflow:Using a while_loop for converting RngReadAndSkip cause there is no registered converter for this op.
WARNING:tensorflow:Using a while_loop for converting Bitcast cause there is no registered converter for this op.
…
600/600 [==============================] - 348s 580ms/step - loss: 0.0400 - accuracy: 0.9872 - val_loss: 0.3166 - val_accuracy: 0.9367
=======================================resnet50_phase_B_2==============================================
Model: "resnet50"
__________________________________________________________________________________________________
 Layer (type)                   Output Shape         Param #     Connected to
==================================================================================================
 input_5 (InputLayer)           [(None, 64, 64, 3)]  0           []

 conv1_pad (ZeroPadding2D)      (None, 70, 70, 3)    0           ['input_5[0][0]']

 conv1_conv (Conv2D)            (None, 32, 32, 64)   9472        ['conv1_pad[0][0]']

 conv1_bn (BatchNormalization)  (None, 32, 32, 64)   256         ['conv1_conv[0][0]']

 conv1_relu (Activation)        (None, 32, 32, 64)   0           ['conv1_bn[0][0]']

 pool1_pad (ZeroPadding2D)      (None, 34, 34, 64)   0           ['conv1_relu[0][0]']

 pool1_pool (MaxPooling2D)      (None, 16, 16, 64)   0           ['pool1_pad[0][0]']

 conv2_block1_1_conv (Conv2D)   (None, 16, 16, 64)   4160        ['pool1_pool[0][0]']

 conv2_block1_1_bn (BatchNormal  (None, 16, 16, 64)  256         ['conv2_block1_1_conv[0][0]']
 ization)

 conv2_block1_1_relu (Activatio  (None, 16, 16, 64)  0           ['conv2_block1_1_bn[0][0]']
 n)

 conv2_block1_2_conv (Conv2D)   (None, 16, 16, 64)   36928       ['conv2_block1_1_relu[0][0]']

 conv2_block1_2_bn (BatchNormal  (None, 16, 16, 64)  256         ['conv2_block1_2_conv[0][0]']
 ization)

 conv2_block1_2_relu (Activatio  (None, 16, 16, 64)  0           ['conv2_block1_2_bn[0][0]']
 n)

 conv2_block1_0_conv (Conv2D)   (None, 16, 16, 256)  16640       ['pool1_pool[0][0]']

 conv2_block1_3_conv (Conv2D)   (None, 16, 16, 256)  16640       ['conv2_block1_2_relu[0][0]']

 conv2_block1_0_bn (BatchNormal  (None, 16, 16, 256)  1024       ['conv2_block1_0_conv[0][0]']
 ization)

 conv2_block1_3_bn (BatchNormal  (None, 16, 16, 256)  1024       ['conv2_block1_3_conv[0][0]']
 ization)

 conv2_block1_add (Add)         (None, 16, 16, 256)  0           ['conv2_block1_0_bn[0][0]',
                                                                  'conv2_block1_3_bn[0][0]']

 conv2_block1_out (Activation)  (None, 16, 16, 256)  0           ['conv2_block1_add[0][0]']

 conv2_block2_1_conv (Conv2D)   (None, 16, 16, 64)   16448       ['conv2_block1_out[0][0]']

 conv2_block2_1_bn (BatchNormal  (None, 16, 16, 64)  256         ['conv2_block2_1_conv[0][0]']
 ization)

 conv2_block2_1_relu (Activatio  (None, 16, 16, 64)  0           ['conv2_block2_1_bn[0][0]']
 n)

 conv2_block2_2_conv (Conv2D)   (None, 16, 16, 64)   36928       ['conv2_block2_1_relu[0][0]']

 conv2_block2_2_bn (BatchNormal  (None, 16, 16, 64)  256         ['conv2_block2_2_conv[0][0]']
 ization)

 conv2_block2_2_relu (Activatio  (None, 16, 16, 64)  0           ['conv2_block2_2_bn[0][0]']
 n)

 conv2_block2_3_conv (Conv2D)   (None, 16, 16, 256)  16640       ['conv2_block2_2_relu[0][0]']

 conv2_block2_3_bn (BatchNormal  (None, 16, 16, 256)  1024       ['conv2_block2_3_conv[0][0]']
 ization)

 conv2_block2_add (Add)         (None, 16, 16, 256)  0           ['conv2_block1_out[0][0]',
                                                                  'conv2_block2_3_bn[0][0]']

 conv2_block2_out (Activation)  (None, 16, 16, 256)  0           ['conv2_block2_add[0][0]']

 conv2_block3_1_conv (Conv2D)   (None, 16, 16, 64)   16448       ['conv2_block2_out[0][0]']

 conv2_block3_1_bn (BatchNormal  (None, 16, 16, 64)  256         ['conv2_block3_1_conv[0][0]']
 ization)

 conv2_block3_1_relu (Activatio  (None, 16, 16, 64)  0           ['conv2_block3_1_bn[0][0]']
 n)

 conv2_block3_2_conv (Conv2D)   (None, 16, 16, 64)   36928       ['conv2_block3_1_relu[0][0]']

 conv2_block3_2_bn (BatchNormal  (None, 16, 16, 64)  256         ['conv2_block3_2_conv[0][0]']
 ization)

 conv2_block3_2_relu (Activatio  (None, 16, 16, 64)  0           ['conv2_block3_2_bn[0][0]']
 n)

 conv2_block3_3_conv (Conv2D)   (None, 16, 16, 256)  16640       ['conv2_block3_2_relu[0][0]']

 conv2_block3_3_bn (BatchNormal  (None, 16, 16, 256)  1024       ['conv2_block3_3_conv[0][0]']
 ization)

 conv2_block3_add (Add)         (None, 16, 16, 256)  0           ['conv2_block2_out[0][0]',
                                                                  'conv2_block3_3_bn[0][0]']

 conv2_block3_out (Activation)  (None, 16, 16, 256)  0           ['conv2_block3_add[0][0]']

 conv3_block1_1_conv (Conv2D)   (None, 8, 8, 128)    32896       ['conv2_block3_out[0][0]']

 conv3_block1_1_bn (BatchNormal  (None, 8, 8, 128)   512         ['conv3_block1_1_conv[0][0]']
 ization)

 conv3_block1_1_relu (Activatio  (None, 8, 8, 128)   0           ['conv3_block1_1_bn[0][0]']
 n)

 conv3_block1_2_conv (Conv2D)   (None, 8, 8, 128)    147584      ['conv3_block1_1_relu[0][0]']

 conv3_block1_2_bn (BatchNormal  (None, 8, 8, 128)   512         ['conv3_block1_2_conv[0][0]']
 ization)

 conv3_block1_2_relu (Activatio  (None, 8, 8, 128)   0           ['conv3_block1_2_bn[0][0]']
 n)

 conv3_block1_0_conv (Conv2D)   (None, 8, 8, 512)    131584      ['conv2_block3_out[0][0]']

 conv3_block1_3_conv (Conv2D)   (None, 8, 8, 512)    66048       ['conv3_block1_2_relu[0][0]']

 conv3_block1_0_bn (BatchNormal  (None, 8, 8, 512)   2048        ['conv3_block1_0_conv[0][0]']
 ization)

 conv3_block1_3_bn (BatchNormal  (None, 8, 8, 512)   2048        ['conv3_block1_3_conv[0][0]']
 ization)

 conv3_block1_add (Add)         (None, 8, 8, 512)    0           ['conv3_block1_0_bn[0][0]',
                                                                  'conv3_block1_3_bn[0][0]']

 conv3_block1_out (Activation)  (None, 8, 8, 512)    0           ['conv3_block1_add[0][0]']

 conv3_block2_1_conv (Conv2D)   (None, 8, 8, 128)    65664       ['conv3_block1_out[0][0]']

 conv3_block2_1_bn (BatchNormal  (None, 8, 8, 128)   512         ['conv3_block2_1_conv[0][0]']
 ization)

 conv3_block2_1_relu (Activatio  (None, 8, 8, 128)   0           ['conv3_block2_1_bn[0][0]']
 n)

 conv3_block2_2_conv (Conv2D)   (None, 8, 8, 128)    147584      ['conv3_block2_1_relu[0][0]']

 conv3_block2_2_bn (BatchNormal  (None, 8, 8, 128)   512         ['conv3_block2_2_conv[0][0]']
 ization)

 conv3_block2_2_relu (Activatio  (None, 8, 8, 128)   0           ['conv3_block2_2_bn[0][0]']
 n)

 conv3_block2_3_conv (Conv2D)   (None, 8, 8, 512)    66048       ['conv3_block2_2_relu[0][0]']

 conv3_block2_3_bn (BatchNormal  (None, 8, 8, 512)   2048        ['conv3_block2_3_conv[0][0]']
 ization)

 conv3_block2_add (Add)         (None, 8, 8, 512)    0           ['conv3_block1_out[0][0]',
                                                                  'conv3_block2_3_bn[0][0]']

 conv3_block2_out (Activation)  (None, 8, 8, 512)    0           ['conv3_block2_add[0][0]']

 conv3_block3_1_conv (Conv2D)   (None, 8, 8, 128)    65664       ['conv3_block2_out[0][0]']

 conv3_block3_1_bn (BatchNormal  (None, 8, 8, 128)   512         ['conv3_block3_1_conv[0][0]']
 ization)

 conv3_block3_1_relu (Activatio  (None, 8, 8, 128)   0           ['conv3_block3_1_bn[0][0]']
 n)

 conv3_block3_2_conv (Conv2D)   (None, 8, 8, 128)    147584      ['conv3_block3_1_relu[0][0]']

 conv3_block3_2_bn (BatchNormal  (None, 8, 8, 128)   512         ['conv3_block3_2_conv[0][0]']
 ization)

 conv3_block3_2_relu (Activatio  (None, 8, 8, 128)   0           ['conv3_block3_2_bn[0][0]']
 n)

 conv3_block3_3_conv (Conv2D)   (None, 8, 8, 512)    66048       ['conv3_block3_2_relu[0][0]']

 conv3_block3_3_bn (BatchNormal  (None, 8, 8, 512)   2048        ['conv3_block3_3_conv[0][0]']
 ization)

 conv3_block3_add (Add)         (None, 8, 8, 512)    0           ['conv3_block2_out[0][0]',
                                                                  'conv3_block3_3_bn[0][0]']

 conv3_block3_out (Activation)  (None, 8, 8, 512)    0           ['conv3_block3_add[0][0]']

 conv3_block4_1_conv (Conv2D)   (None, 8, 8, 128)    65664       ['conv3_block3_out[0][0]']

 conv3_block4_1_bn (BatchNormal  (None, 8, 8, 128)   512         ['conv3_block4_1_conv[0][0]']
 ization)

 conv3_block4_1_relu (Activatio  (None, 8, 8, 128)   0           ['conv3_block4_1_bn[0][0]']
 n)

 conv3_block4_2_conv (Conv2D)   (None, 8, 8, 128)    147584      ['conv3_block4_1_relu[0][0]']

 conv3_block4_2_bn (BatchNormal  (None, 8, 8, 128)   512         ['conv3_block4_2_conv[0][0]']
 ization)

 conv3_block4_2_relu (Activatio  (None, 8, 8, 128)   0           ['conv3_block4_2_bn[0][0]']
 n)

 conv3_block4_3_conv (Conv2D)   (None, 8, 8, 512)    66048       ['conv3_block4_2_relu[0][0]']

 conv3_block4_3_bn (BatchNormal  (None, 8, 8, 512)   2048        ['conv3_block4_3_conv[0][0]']
 ization)

 conv3_block4_add (Add)         (None, 8, 8, 512)    0           ['conv3_block3_out[0][0]',
                                                                  'conv3_block4_3_bn[0][0]']

 conv3_block4_out (Activation)  (None, 8, 8, 512)    0           ['conv3_block4_add[0][0]']

 conv4_block1_1_conv (Conv2D)   (None, 4, 4, 256)    131328      ['conv3_block4_out[0][0]']

 conv4_block1_1_bn (BatchNormal  (None, 4, 4, 256)   1024        ['conv4_block1_1_conv[0][0]']
 ization)

 conv4_block1_1_relu (Activatio  (None, 4, 4, 256)   0           ['conv4_block1_1_bn[0][0]']
 n)

 conv4_block1_2_conv (Conv2D)   (None, 4, 4, 256)    590080      ['conv4_block1_1_relu[0][0]']

 conv4_block1_2_bn (BatchNormal  (None, 4, 4, 256)   1024        ['conv4_block1_2_conv[0][0]']
 ization)

 conv4_block1_2_relu (Activatio  (None, 4, 4, 256)   0           ['conv4_block1_2_bn[0][0]']
 n)

 conv4_block1_0_conv (Conv2D)   (None, 4, 4, 1024)   525312      ['conv3_block4_out[0][0]']

 conv4_block1_3_conv (Conv2D)   (None, 4, 4, 1024)   263168      ['conv4_block1_2_relu[0][0]']

 conv4_block1_0_bn (BatchNormal  (None, 4, 4, 1024)  4096        ['conv4_block1_0_conv[0][0]']
 ization)

 conv4_block1_3_bn (BatchNormal  (None, 4, 4, 1024)  4096        ['conv4_block1_3_conv[0][0]']
 ization)

 conv4_block1_add (Add)         (None, 4, 4, 1024)   0           ['conv4_block1_0_bn[0][0]',
                                                                  'conv4_block1_3_bn[0][0]']

 conv4_block1_out (Activation)  (None, 4, 4, 1024)   0           ['conv4_block1_add[0][0]']

 conv4_block2_1_conv (Conv2D)   (None, 4, 4, 256)    262400      ['conv4_block1_out[0][0]']

 conv4_block2_1_bn (BatchNormal  (None, 4, 4, 256)   1024        ['conv4_block2_1_conv[0][0]']
 ization)

 conv4_block2_1_relu (Activatio  (None, 4, 4, 256)   0           ['conv4_block2_1_bn[0][0]']
 n)

 conv4_block2_2_conv (Conv2D)   (None, 4, 4, 256)    590080      ['conv4_block2_1_relu[0][0]']

 conv4_block2_2_bn (BatchNormal  (None, 4, 4, 256)   1024        ['conv4_block2_2_conv[0][0]']
 ization)

 conv4_block2_2_relu (Activatio  (None, 4, 4, 256)   0           ['conv4_block2_2_bn[0][0]']
 n)

 conv4_block2_3_conv (Conv2D)   (None, 4, 4, 1024)   263168      ['conv4_block2_2_relu[0][0]']

 conv4_block2_3_bn (BatchNormal  (None, 4, 4, 1024)  4096        ['conv4_block2_3_conv[0][0]']
 ization)

 conv4_block2_add (Add)         (None, 4, 4, 1024)   0           ['conv4_block1_out[0][0]',
                                                                  'conv4_block2_3_bn[0][0]']

 conv4_block2_out (Activation)  (None, 4, 4, 1024)   0           ['conv4_block2_add[0][0]']

 conv4_block3_1_conv (Conv2D)   (None, 4, 4, 256)    262400      ['conv4_block2_out[0][0]']

 conv4_block3_1_bn (BatchNormal  (None, 4, 4, 256)   1024        ['conv4_block3_1_conv[0][0]']
 ization)

 conv4_block3_1_relu (Activatio  (None, 4, 4, 256)   0           ['conv4_block3_1_bn[0][0]']
 n)

 conv4_block3_2_conv (Conv2D)   (None, 4, 4, 256)    590080      ['conv4_block3_1_relu[0][0]']

 conv4_block3_2_bn (BatchNormal  (None, 4, 4, 256)   1024        ['conv4_block3_2_conv[0][0]']
 ization)

 conv4_block3_2_relu (Activatio  (None, 4, 4, 256)   0           ['conv4_block3_2_bn[0][0]']
 n)

 conv4_block3_3_conv (Conv2D)   (None, 4, 4, 1024)   263168      ['conv4_block3_2_relu[0][0]']

 conv4_block3_3_bn (BatchNormal  (None, 4, 4, 1024)  4096        ['conv4_block3_3_conv[0][0]']
 ization)

 conv4_block3_add (Add)         (None, 4, 4, 1024)   0           ['conv4_block2_out[0][0]',
                                                                  'conv4_block3_3_bn[0][0]']

 conv4_block3_out (Activation)  (None, 4, 4, 1024)   0           ['conv4_block3_add[0][0]']

 conv4_block4_1_conv (Conv2D)   (None, 4, 4, 256)    262400      ['conv4_block3_out[0][0]']

 conv4_block4_1_bn (BatchNormal  (None, 4, 4, 256)   1024        ['conv4_block4_1_conv[0][0]']
 ization)

 conv4_block4_1_relu (Activatio  (None, 4, 4, 256)   0           ['conv4_block4_1_bn[0][0]']
 n)

 conv4_block4_2_conv (Conv2D)   (None, 4, 4, 256)    590080      ['conv4_block4_1_relu[0][0]']

 conv4_block4_2_bn (BatchNormal  (None, 4, 4, 256)   1024        ['conv4_block4_2_conv[0][0]']
 ization)

 conv4_block4_2_relu (Activatio  (None, 4, 4, 256)   0           ['conv4_block4_2_bn[0][0]']
 n)

 conv4_block4_3_conv (Conv2D)   (None, 4, 4, 1024)   263168      ['conv4_block4_2_relu[0][0]']

 conv4_block4_3_bn (BatchNormal  (None, 4, 4, 1024)  4096        ['conv4_block4_3_conv[0][0]']
 ization)

 conv4_block4_add (Add)         (None, 4, 4, 1024)   0           ['conv4_block3_out[0][0]',
                                                                  'conv4_block4_3_bn[0][0]']

 conv4_block4_out (Activation)  (None, 4, 4, 1024)   0           ['conv4_block4_add[0][0]']

 conv4_block5_1_conv (Conv2D)   (None, 4, 4, 256)    262400      ['conv4_block4_out[0][0]']

 conv4_block5_1_bn (BatchNormal  (None, 4, 4, 256)   1024        ['conv4_block5_1_conv[0][0]']
 ization)

 conv4_block5_1_relu (Activatio  (None, 4, 4, 256)   0           ['conv4_block5_1_bn[0][0]']
 n)

 conv4_block5_2_conv (Conv2D)   (None, 4, 4, 256)    590080      ['conv4_block5_1_relu[0][0]']

 conv4_block5_2_bn (BatchNormal  (None, 4, 4, 256)   1024        ['conv4_block5_2_conv[0][0]']
 ization)

 conv4_block5_2_relu (Activatio  (None, 4, 4, 256)   0           ['conv4_block5_2_bn[0][0]']
 n)

 conv4_block5_3_conv (Conv2D)   (None, 4, 4, 1024)   263168      ['conv4_block5_2_relu[0][0]']

 conv4_block5_3_bn (BatchNormal  (None, 4, 4, 1024)  4096        ['conv4_block5_3_conv[0][0]']
 ization)

 conv4_block5_add (Add)         (None, 4, 4, 1024)   0           ['conv4_block4_out[0][0]',
                                                                  'conv4_block5_3_bn[0][0]']

 conv4_block5_out (Activation)  (None, 4, 4, 1024)   0           ['conv4_block5_add[0][0]']

 conv4_block6_1_conv (Conv2D)   (None, 4, 4, 256)    262400      ['conv4_block5_out[0][0]']

 conv4_block6_1_bn (BatchNormal  (None, 4, 4, 256)   1024        ['conv4_block6_1_conv[0][0]']
 ization)

 conv4_block6_1_relu (Activatio  (None, 4, 4, 256)   0           ['conv4_block6_1_bn[0][0]']
 n)

 conv4_block6_2_conv (Conv2D)   (None, 4, 4, 256)    590080      ['conv4_block6_1_relu[0][0]']

 conv4_block6_2_bn (BatchNormal  (None, 4, 4, 256)   1024        ['conv4_block6_2_conv[0][0]']
 ization)

 conv4_block6_2_relu (Activatio  (None, 4, 4, 256)   0           ['conv4_block6_2_bn[0][0]']
 n)

 conv4_block6_3_conv (Conv2D)   (None, 4, 4, 1024)   263168      ['conv4_block6_2_relu[0][0]']

 conv4_block6_3_bn (BatchNormal  (None, 4, 4, 1024)  4096        ['conv4_block6_3_conv[0][0]']
 ization)

 conv4_block6_add (Add)         (None, 4, 4, 1024)   0           ['conv4_block5_out[0][0]',
                                                                  'conv4_block6_3_bn[0][0]']

 conv4_block6_out (Activation)  (None, 4, 4, 1024)   0           ['conv4_block6_add[0][0]']

 conv5_block1_1_conv (Conv2D)   (None, 2, 2, 512)    524800      ['conv4_block6_out[0][0]']

 conv5_block1_1_bn (BatchNormal  (None, 2, 2, 512)   2048        ['conv5_block1_1_conv[0][0]']
 ization)

 conv5_block1_1_relu (Activatio  (None, 2, 2, 512)   0           ['conv5_block1_1_bn[0][0]']
 n)

 conv5_block1_2_conv (Conv2D)   (None, 2, 2, 512)    2359808     ['conv5_block1_1_relu[0][0]']

 conv5_block1_2_bn (BatchNormal  (None, 2, 2, 512)   2048        ['conv5_block1_2_conv[0][0]']
 ization)

 conv5_block1_2_relu (Activatio  (None, 2, 2, 512)   0           ['conv5_block1_2_bn[0][0]']
 n)

 conv5_block1_0_conv (Conv2D)   (None, 2, 2, 2048)   2099200     ['conv4_block6_out[0][0]']

 conv5_block1_3_conv (Conv2D)   (None, 2, 2, 2048)   1050624     ['conv5_block1_2_relu[0][0]']

 conv5_block1_0_bn (BatchNormal  (None, 2, 2, 2048)  8192        ['conv5_block1_0_conv[0][0]']
 ization)

 conv5_block1_3_bn (BatchNormal  (None, 2, 2, 2048)  8192        ['conv5_block1_3_conv[0][0]']
 ization)

 conv5_block1_add (Add)         (None, 2, 2, 2048)   0           ['conv5_block1_0_bn[0][0]',
                                                                  'conv5_block1_3_bn[0][0]']

 conv5_block1_out (Activation)  (None, 2, 2, 2048)   0           ['conv5_block1_add[0][0]']

 conv5_block2_1_conv (Conv2D)   (None, 2, 2, 512)    1049088     ['conv5_block1_out[0][0]']

 conv5_block2_1_bn (BatchNormal  (None, 2, 2, 512)   2048        ['conv5_block2_1_conv[0][0]']
 ization)

 conv5_block2_1_relu (Activatio  (None, 2, 2, 512)   0           ['conv5_block2_1_bn[0][0]']
 n)

 conv5_block2_2_conv (Conv2D)   (None, 2, 2, 512)    2359808     ['conv5_block2_1_relu[0][0]']

 conv5_block2_2_bn (BatchNormal  (None, 2, 2, 512)   2048        ['conv5_block2_2_conv[0][0]']
 ization)

 conv5_block2_2_relu (Activatio  (None, 2, 2, 512)   0           ['conv5_block2_2_bn[0][0]']
 n)

 conv5_block2_3_conv (Conv2D)   (None, 2, 2, 2048)   1050624     ['conv5_block2_2_relu[0][0]']

 conv5_block2_3_bn (BatchNormal  (None, 2, 2, 2048)  8192        ['conv5_block2_3_conv[0][0]']
 ization)

 conv5_block2_add (Add)         (None, 2, 2, 2048)   0           ['conv5_block1_out[0][0]',
                                                                  'conv5_block2_3_bn[0][0]']

 conv5_block2_out (Activation)  (None, 2, 2, 2048)   0           ['conv5_block2_add[0][0]']

 conv5_block3_1_conv (Conv2D)   (None, 2, 2, 512)    1049088     ['conv5_block2_out[0][0]']

 conv5_block3_1_bn (BatchNormal  (None, 2, 2, 512)   2048        ['conv5_block3_1_conv[0][0]']
 ization)

 conv5_block3_1_relu (Activatio  (None, 2, 2, 512)   0           ['conv5_block3_1_bn[0][0]']
 n)

 conv5_block3_2_conv (Conv2D)   (None, 2, 2, 512)    2359808     ['conv5_block3_1_relu[0][0]']

 conv5_block3_2_bn (BatchNormal  (None, 2, 2, 512)   2048        ['conv5_block3_2_conv[0][0]']
 ization)

 conv5_block3_2_relu (Activatio  (None, 2, 2, 512)   0           ['conv5_block3_2_bn[0][0]']
 n)

 conv5_block3_3_conv (Conv2D)   (None, 2, 2, 2048)   1050624     ['conv5_block3_2_relu[0][0]']

 conv5_block3_3_bn (BatchNormal  (None, 2, 2, 2048)  8192        ['conv5_block3_3_conv[0][0]']
 ization)

 conv5_block3_add (Add)         (None, 2, 2, 2048)   0           ['conv5_block2_out[0][0]',
                                                                  'conv5_block3_3_bn[0][0]']

 conv5_block3_out (Activation)  (None, 2, 2, 2048)   0           ['conv5_block3_add[0][0]']

==================================================================================================
Total params: 23,587,712
Trainable params: 0
Non-trainable params: 23,587,712
__________________________________________________________________________________________________
ResNet50 Base model: None
Model: "model_2"
_________________________________________________________________
 Layer (type)                Output Shape              Param #
=================================================================
 input_6 (InputLayer)        [(None, 64, 64, 3)]       0

 data_augmentation (Sequenti  (None, 64, 64, 3)        0
 al)

 tf.__operators__.getitem_2   (None, 64, 64, 3)        0
 (SlicingOpLambda)

 tf.nn.bias_add_2 (TFOpLambd  (None, 64, 64, 3)        0
 a)

 resnet50 (Functional)       (None, 2, 2, 2048)        23587712

 flatten_2 (Flatten)         (None, 8192)              0

 dense_4 (Dense)             (None, 128)               1048704

 dropout_2 (Dropout)         (None, 128)               0

 dense_5 (Dense)             (None, 10)                1290

=================================================================
Total params: 24,637,706
Trainable params: 1,049,994
Non-trainable params: 23,587,712
_________________________________________________________________
ResNet50 Model: None
Epoch 1/25
WARNING:tensorflow:Using a while_loop for converting RngReadAndSkip cause there is no registered converter for this op.
WARNING:tensorflow:Using a while_loop for converting Bitcast cause there is no registered converter for this op.
…
600/600 [==============================] - 337s 562ms/step - loss: 0.1771 - accuracy: 0.9397 - val_loss: 0.1927 - val_accuracy: 0.9375
Epoch 24/25
600/600 [==============================] - 338s 564ms/step - loss: 0.1795 - accuracy: 0.9358 - val_loss: 0.1911 - val_accuracy: 0.9417
Epoch 25/25
600/600 [==============================] - 340s 566ms/step - loss: 0.1763 - accuracy: 0.9401 - val_loss: 0.1838 - val_accuracy: 0.9423
Model: "model_2"
_________________________________________________________________
 Layer (type)                Output Shape              Param #
=================================================================
 input_6 (InputLayer)        [(None, 64, 64, 3)]       0

 data_augmentation (Sequenti  (None, 64, 64, 3)        0
 al)

 tf.__operators__.getitem_2   (None, 64, 64, 3)        0
 (SlicingOpLambda)

 tf.nn.bias_add_2 (TFOpLambd  (None, 64, 64, 3)        0
 a)

 resnet50 (Functional)       (None, 2, 2, 2048)        23587712

 flatten_2 (Flatten)         (None, 8192)              0

 dense_4 (Dense)             (None, 128)               1048704

 dropout_2 (Dropout)         (None, 128)               0

 dense_5 (Dense)             (None, 10)                1290

=================================================================
Total params: 24,637,706
Trainable params: 5,515,658
Non-trainable params: 19,122,048
_________________________________________________________________
ResNet50 Model(unfreeze conv5_block3_1_conv): None
Epoch 1/50
WARNING:tensorflow:Using a while_loop for converting RngReadAndSkip cause there is no registered converter for this op.
…
