…
2025-05-07 17:27:30.446151: I tensorflow/core/common_runtime/gpu/gpu_device.cc:1616] Created device /job:localhost/replica:0/task:0/device:GPU:0 with 8943 MB memory:  -> device: 0, name: NVIDIA GeForce RTX 2080 Ti, pci bus id: 0000:17:00.0, compute capability: 7.5
2025-05-07 17:27:30.448971: I tensorflow/core/common_runtime/gpu/gpu_device.cc:1616] Created device /job:localhost/replica:0/task:0/device:GPU:1 with 8943 MB memory:  -> device: 1, name: NVIDIA GeForce RTX 2080 Ti, pci bus id: 0000:65:00.0, compute capability: 7.5
Model: "vgg16"
_________________________________________________________________
 Layer (type)                Output Shape              Param #
=================================================================
 input_1 (InputLayer)        [(None, 64, 64, 3)]       0

 block1_conv1 (Conv2D)       (None, 64, 64, 64)        1792

 block1_conv2 (Conv2D)       (None, 64, 64, 64)        36928

 block1_pool (MaxPooling2D)  (None, 32, 32, 64)        0

 block2_conv1 (Conv2D)       (None, 32, 32, 128)       73856

 block2_conv2 (Conv2D)       (None, 32, 32, 128)       147584

 block2_pool (MaxPooling2D)  (None, 16, 16, 128)       0

 block3_conv1 (Conv2D)       (None, 16, 16, 256)       295168

 block3_conv2 (Conv2D)       (None, 16, 16, 256)       590080

 block3_conv3 (Conv2D)       (None, 16, 16, 256)       590080

 block3_pool (MaxPooling2D)  (None, 8, 8, 256)         0

 block4_conv1 (Conv2D)       (None, 8, 8, 512)         1180160

 block4_conv2 (Conv2D)       (None, 8, 8, 512)         2359808

 block4_conv3 (Conv2D)       (None, 8, 8, 512)         2359808

 block4_pool (MaxPooling2D)  (None, 4, 4, 512)         0

 block5_conv1 (Conv2D)       (None, 4, 4, 512)         2359808

 block5_conv2 (Conv2D)       (None, 4, 4, 512)         2359808

 block5_conv3 (Conv2D)       (None, 4, 4, 512)         2359808

 block5_pool (MaxPooling2D)  (None, 2, 2, 512)         0

=================================================================
Total params: 14,714,688
Trainable params: 0
Non-trainable params: 14,714,688
_________________________________________________________________
VGG16 Base model: None
WARNING:tensorflow:Using a while_loop for converting RngReadAndSkip cause there is no registered converter for this op.
WARNING:tensorflow:Using a while_loop for converting Bitcast cause there is no registered converter for this op.
…
WARNING:tensorflow:Using a while_loop for converting StatelessRandomGetKeyCounter cause there is no registered converter for this op.
WARNING:tensorflow:Using a while_loop for converting StatelessRandomUniformV2 cause there is no registered converter for this op.
WARNING:tensorflow:Using a while_loop for converting AdjustContrastv2 cause Input "contrast_factor" of op 'AdjustContrastv2' expected to be loop invariant.
Model: "model"
_________________________________________________________________
 Layer (type)                Output Shape              Param #
=================================================================
 input_2 (InputLayer)        [(None, 64, 64, 3)]       0

 data_augmentation (Sequenti  (None, 64, 64, 3)        0
 al)

 tf.__operators__.getitem (S  (None, 64, 64, 3)        0
 licingOpLambda)

 tf.nn.bias_add (TFOpLambda)  (None, 64, 64, 3)        0

 vgg16 (Functional)          (None, 2, 2, 512)         14714688

 global_average_pooling2d (G  (None, 512)              0
 lobalAveragePooling2D)

 dense (Dense)               (None, 128)               65664

 dropout (Dropout)           (None, 128)               0

 dense_1 (Dense)             (None, 10)                1290

=================================================================
Total params: 14,781,642
Trainable params: 66,954
Non-trainable params: 14,714,688
_________________________________________________________________
VGG16 Model: None
Epoch 1/25
WARNING:tensorflow:Using a while_loop for converting RngReadAndSkip cause there is no registered converter for this op.
WARNING:tensorflow:Using a while_loop for converting Bitcast cause there is no registered converter for this op.
…
600/600 [==============================] - 354s 590ms/step - loss: 0.3867 - accuracy: 0.8738 - val_loss: 0.3017 - val_accuracy: 0.9067
Epoch 25/25
600/600 [==============================] - 354s 590ms/step - loss: 0.3811 - accuracy: 0.8765 - val_loss: 0.3045 - val_accuracy: 0.9048
=======================================================================================================
Model: "vgg16"
_________________________________________________________________
 Layer (type)                Output Shape              Param #
=================================================================
 input_3 (InputLayer)        [(None, 64, 64, 3)]       0

 block1_conv1 (Conv2D)       (None, 64, 64, 64)        1792

 block1_conv2 (Conv2D)       (None, 64, 64, 64)        36928

 block1_pool (MaxPooling2D)  (None, 32, 32, 64)        0

 block2_conv1 (Conv2D)       (None, 32, 32, 128)       73856

 block2_conv2 (Conv2D)       (None, 32, 32, 128)       147584

 block2_pool (MaxPooling2D)  (None, 16, 16, 128)       0

 block3_conv1 (Conv2D)       (None, 16, 16, 256)       295168

 block3_conv2 (Conv2D)       (None, 16, 16, 256)       590080

 block3_conv3 (Conv2D)       (None, 16, 16, 256)       590080

 block3_pool (MaxPooling2D)  (None, 8, 8, 256)         0

 block4_conv1 (Conv2D)       (None, 8, 8, 512)         1180160

 block4_conv2 (Conv2D)       (None, 8, 8, 512)         2359808

 block4_conv3 (Conv2D)       (None, 8, 8, 512)         2359808

 block4_pool (MaxPooling2D)  (None, 4, 4, 512)         0

 block5_conv1 (Conv2D)       (None, 4, 4, 512)         2359808

 block5_conv2 (Conv2D)       (None, 4, 4, 512)         2359808

 block5_conv3 (Conv2D)       (None, 4, 4, 512)         2359808

 block5_pool (MaxPooling2D)  (None, 2, 2, 512)         0

=================================================================
Total params: 14,714,688
Trainable params: 0
Non-trainable params: 14,714,688
_________________________________________________________________
Base model: None
Model: "model_1"
_________________________________________________________________
 Layer (type)                Output Shape              Param #
=================================================================
 input_4 (InputLayer)        [(None, 64, 64, 3)]       0

 data_augmentation (Sequenti  (None, 64, 64, 3)        0
 al)

 tf.__operators__.getitem_1   (None, 64, 64, 3)        0
 (SlicingOpLambda)

 tf.nn.bias_add_1 (TFOpLambd  (None, 64, 64, 3)        0
 a)

 vgg16 (Functional)          (None, 2, 2, 512)         14714688

 global_average_pooling2d_1   (None, 512)              0
 (GlobalAveragePooling2D)

 dense_2 (Dense)             (None, 128)               65664

 dropout_1 (Dropout)         (None, 128)               0

 dense_3 (Dense)             (None, 10)                1290

=================================================================
Total params: 14,781,642
Trainable params: 66,954
Non-trainable params: 14,714,688
_________________________________________________________________
VGG16 Model: None
Epoch 1/25
WARNING:tensorflow:Using a while_loop for converting RngReadAndSkip cause there is no registered converter for this op.
WARNING:tensorflow:Using a while_loop for converting Bitcast cause there is no registered converter for this op.
…
